sign_translation_JH/model_pt/FC_Model.pt (torch, 394258 bytes, 6 tensors)

fc1.weight f4 [500, 63]
0	0xbdedaf9a	-0.11605759
1	0xbde0930f	-0.10965549
2	0x3da5436c	0.080695
3	0xbd281da2	-0.041043885
4	0x3cc1ff45	0.023681292
5	0xbc164870	-0.009172544
6	0x3dfd80cc	0.12378082
7	0x3d52453e	0.051335566
8	0xbdd0a5a2	-0.10187842
9	0x3bc3d0ec	0.005975833
10	0x3c964017	0.018341107
11	0x3c5ff35a	0.013668859
12	0x3d0de297	0.03463992
13	0x3d7ff024	0.062484875
14	0xbc79126b	-0.015202145
15	0xbdcfb035	-0.10141031
16	0x3da0c589	0.07850177
17	0x3dae5a6c	0.0851334
18	0xbdf4066c	-0.119152874
19	0xbde4fe8a	-0.11181362
20	0xbcab3696	-0.020900052
21	0x3c723ef6	0.014785519
22	0x3d299f8d	0.041411925
23	0xbcd09024	-0.025459357
24	0xbdbadf1f	-0.09124588
25	0x3c89c989	0.016819732
26	0x3db59dc1	0.0886798
27	0x3c6e6f7f	0.01455295
28	0x3d51c4f9	0.05121324
29	0x3bce30c1	0.006292433
30	0x3d69360e	0.056936316
31	0xbd4bffa6	-0.049804352
32	0xbd1b5431	-0.037922088
33	0x3d8de35d	0.06928132
34	0x3bd4f7fd	0.006499289
35	0xbcb31f27	-0.02186544
36	0xbb50f34c	-0.0031883297
37	0xbc5d4ac3	-0.013506594
38	0x3d581a5c	0.052759513
39	0xbde15b91	-0.11003793
40	0xbdefb194	-0.11703792
41	0x3c906a50	0.017628819
42	0x3d865029	0.06558258
43	0xbde5403a	-0.11193891
44	0x3d1aac38	0.037761897
45	0xbd4d2748	-0.05008629
46	0xbb22f1ac	-0.0024863286
47	0xbd5245a3	-0.051335942
48	0xbda0bb77	-0.07848256
49	0xbddbe9b6	-0.10737936
50	0x3da55eff	0.0807476
51	0x3d17cda9	0.037061367
52	0xbced8e7c	-0.028998606
53	0xbc6aaea6	-0.014323866
54	0x3da81c15	0.08208481
55	0xbc82de4c	-0.01597514
56	0xbdaa2d76	-0.08309452
57	0xbd6fa75a	-0.05850921
58	0x3dd5092e	0.104021415
59	0xbd5ebfbc	-0.05438207
60	0xbc8e8736	-0.017398458
61	0x3d7bfeee	0.061522417
62	0x3decd7d5	0.11564604
63	0x3e46f249	0.19428362
64	0x3e832d90	0.256207
65	0x3e56fe2a	0.20995393
66	0xbed099cd	-0.4074234
67	0xbf9a3513	-1.2047447
68	0x40122ce7	2.2839906
69	0x3f9617eb	1.1726049
70	0x3f0af94e	0.5428666
71	0x3bdb7097	0.0066967714
72	0x402ab9ca	2.6675897
73	0x3e3fb9d1	0.18723227
74	0xbf0b1a68	-0.5433717
75	0xbf52a01c	-0.8227556
76	0x3f9fe212	1.2490866
77	0xbf5a69c0	-0.8531761
78	0xbe81eec9	-0.2537749
79	0x3e8b5552	0.27213532
80	0x3eb1fdd3	0.34763965
81	0xbf568428	-0.83795404
82	0xbf61a293	-0.88138694
83	0xbf1b387a	-0.6063305
84	0x3ee7d65e	0.45280737
85	0x3e474423	0.19459586
86	0x3dd3713d	0.10324333
87	0x3d15a976	0.036538564
88	0xbed60c9c	-0.41806495
89	0xbbf0b588	-0.007345859
90	0xbe4a6e4d	-0.19768639
91	0xbc9aa496	-0.018877309
92	0x3eb1ba13	0.34712276
93	0x3d696d6a	0.05698911
94	0xbce1e2b1	-0.027573915
95	0xbe937fd4	-0.28808463
96	0xbe027594	-0.12740165
97	0x3cf2fbd7	0.029661102
98	0x3c4b682e	0.012414975
99	0xbe012302	-0.1261101
100	0x3e816b23	0.2527705
101	0x3da3989b	0.079880916
102	0xbe3d98ae	-0.18515274
103	0xbe3b5dde	-0.18297526
104	0x3df10124	0.11767796
105	0x3ed1da77	0.40986988
106	0x3e836608	0.2566378
107	0xbd99a516	-0.07502191
108	0xbe146046	-0.1448985
109	0xbde43a54	-0.11143938
110	0xbe9d92fb	-0.307762
111	0xbf9f654e	-1.2452791
112	0xbfa0b1bf	-1.2554244
113	0xbf736976	-0.95082796
114	0xbd7f6ff0	-0.06236261
115	0xbf7b0545	-0.98054916
116	0xbf58cd22	-0.8468801
117	0xbf66e3dc	-0.90191436
118	0x3f03d903	0.5150301
119	0x3ee6c0c0	0.45068932
120	0x3f8a3343	1.0796894
121	0x3f843f2d	1.033178
122	0x3f7a7ea6	0.978495
123	0x3fb152f4	1.385344
124	0x3faa15f2	1.3287947
125	0x3f6362ac	0.88822436
126	0xbf131d34	-0.57466435
127	0xbf142cd1	-0.57880884
128	0xbd8dc581	-0.069224365
129	0x3e42475b	0.18972532
130	0x3f0400c1	0.5156365
131	0x3e78af28	0.24285567
132	0x3e210a89	0.15726675
133	0xbe9167fc	-0.28399646
134	0xbebd555d	-0.3697919
135	0x3f07b1b2	0.53005517
136	0x3ee9f224	0.4569255
137	0x3e002819	0.12515296
138	0xbe8efb11	-0.27925923
139	0x3c9cc3ff	0.019136427
140	0x3c5033cb	0.012707661
141	0xbe08a4d8	-0.13344133
142	0xbced7008	-0.028984085
143	0xbb9bfcd7	-0.0047603655
144	0xbda6b979	-0.08140845
145	0xbe16fd77	-0.14745127
146	0xbe3cc43f	-0.18434237
147	0xbee28076	-0.44238633
148	0xbead5a74	-0.33858073
149	0xbee17fee	-0.44042915
150	0xbd00f181	-0.031480316
151	0x3ef46098	0.47729945
152	0xbdd84bc4	-0.10561326
153	0xbe876032	-0.2644058
154	0x3e20e60e	0.15712759
155	0x3eeb45bb	0.45951638
156	0xbee6c3ab	-0.45071158
157	0xbebafc4f	-0.3652062
158	0x3e0b4d41	0.13603689
159	0x3f0de626	0.55429304
160	0xbef09755	-0.46990457
161	0xbef72297	-0.48268577
162	0x3f020acb	0.5079772
163	0x3fbf8db0	1.4965115
164	0xbf0fadba	-0.5612446
165	0xbf519ff1	-0.81884676
166	0x3f1e76df	0.6190013
167	0x3f39d401	0.7258912
168	0xbf901aae	-1.1258142
169	0xbf663e2e	-0.8993863
170	0xbf16602b	-0.5874049
171	0x3e0ae541	0.13564016
172	0x3f93a6f8	1.153533
173	0xbd8d6894	-0.06904712
174	0x3f15eca6	0.5856422
175	0x3daeee74	0.08541575
176	0x3cd5a717	0.026080651
177	0x3e4c8574	0.19972783
178	0x3f8a40ba	1.0801003
179	0x3f824ded	1.0180031
180	0x3f88aad7	1.0677136
181	0x3d49af37	0.049239364
182	0x3f72e5cf	0.9488191
183	0x3ca7790d	0.020443464
184	0xbedde7fb	-0.4334105
185	0xbe83dd75	-0.25754896
186	0x3f1dfd9b	0.61715096
187	0x3db8fd0e	0.09032641
188	0xbe8f3944	-0.27973378
189	0xbefc09e9	-0.4922631
190	0xbed8071d	-0.42192927
191	0x3ea6bd2d	0.32566205
192	0x3e80d636	0.2516343
193	0x3e69adc5	0.22820194
194	0x3e8d797c	0.27631748
195	0x3df1abcf	0.11800348
196	0xbea0433f	-0.31301305
197	0xbf115616	-0.5677198
198	0xbea78b5c	-0.3272351
199	0x3ec7e190	0.39039278
200	0x3dc8aa26	0.09798078
201	0xbe074c82	-0.13212779
202	0xbed5d2dc	-0.41762435
203	0x3e00d1f5	0.12580092
204	0x3e9c2de0	0.3050375
205	0x3df1c397	0.11804884
206	0xbece3c99	-0.40280607
207	0xbcccb135	-0.024986843
208	0x3ce777f2	0.028255437
209	0x3d1db544	0.038502946
210	0xbec392e4	-0.38198006
211	0xbe8caa46	-0.27473658
212	0xbe335168	-0.17511523
213	0xbeb35686	-0.3502695
214	0xbdcc4b80	-0.09975338
215	0x3ddde830	0.10835302
216	0xbe9d96b6	-0.30779046
217	0x3e6f3e5b	0.2336363
218	0x3f1cf9ac	0.6131847
219	0xbe3f6361	-0.18690254
220	0xbea7e301	-0.32790378
221	0xbda79d22	-0.081842676
222	0x3e637cba	0.22215548
223	0xbebb4337	-0.36574718
224	0xbf2780eb	-0.6543109
225	0x3f9e73a8	1.2379045
226	0x401aff40	2.4218292
227	0xbf223adf	-0.6337108
228	0xbfcd92a6	-1.6060379
229	0xbe83fca8	-0.257787
230	0x3f73af4c	0.95189357
231	0xbfc747f4	-1.5568833
232	0xbfaae918	-1.3352385
233	0xbf763945	-0.96181136
234	0xbe1a1dc1	-0.15050413
235	0x3f0f575f	0.5599269
236	0x3ec00007	0.3750002
237	0x3f85ec64	1.0462766
238	0x3f433c6f	0.7626409
239	0x3f1403b2	0.5781814
240	0x3db55d40	0.08855677
241	0x3f975834	1.1823792
242	0x3f9f1b8a	1.2430279
243	0x3fac5a14	1.346499
244	0xbf0f078f	-0.5587091
245	0x3f89fa30	1.0779476
246	0x3eb96167	0.36207125
247	0xbde8a4ae	-0.11359535
248	0xbf3e2134	-0.74269414
249	0x3ea4293a	0.32062703
250	0xbc5e6367	-0.013573504
251	0xbd867e59	-0.06567068
252	0x3eb543a1	0.3540316
253	0x3e91e868	0.28497624
254	0x3d9b7b2e	0.07591854
255	0x3d00a8f0	0.03141111

fc1.bias f4 [500]
0	0xbdb71dba	-0.08941217
1	0x3f1f043a	0.62115824
2	0xbcd4bb83	-0.025968319
3	0xbda6a8fa	-0.081376985
4	0x3eafe2fc	0.34352863
5	0x3e5e92fb	0.21735756
6	0x3eeb0c6d	0.45907918
7	0xbda8384b	-0.08213862
8	0x3ec1abc9	0.37826374
9	0xbe8a420c	-0.27003515
10	0x3ea89946	0.32929438
11	0xbe30fe16	-0.17284426
12	0x3e4290fc	0.1900062
13	0x3defc195	0.11706845
14	0x3e64428c	0.2229101
15	0xbd2b1458	-0.04176745
16	0x3e174614	0.14772826
17	0x3eb25e8d	0.34837762
18	0x3eb46045	0.35229698
19	0x3efb10d3	0.49036273
20	0x3f04c350	0.51860523
21	0x3cd95196	0.026528161
22	0xbd5fb2bc	-0.054613814
23	0x3cf42ead	0.029807413
24	0x3d59cdb5	0.053174693
25	0x3eb40eb1	0.3516746
26	0x3d1611a3	0.036637913
27	0x3db5f344	0.0888429
28	0xbdad4a54	-0.084614426
29	0xbc21caa4	-0.009874973
30	0x3d0fb51c	0.03508483
31	0x3e9255ff	0.28581235
32	0x3f0a4bf7	0.54022163
33	0xbcdc0acd	-0.026860619
34	0x3ea18dd2	0.31553513
35	0x3eed79c7	0.4638197
36	0xbd9fd9ad	-0.0780519
37	0x3eb7f57e	0.35929483
38	0x3e1bbd97	0.15209042
39	0xbd9b3800	-0.075790405
40	0xbe11e923	-0.14249091
41	0x3ec0981a	0.37616044
42	0xbef384e8	-0.47562337
43	0xbe3499b7	-0.17636763
44	0xbe27a4e3	-0.16371493
45	0x3e07e20f	0.13269828
46	0x3e95a5f5	0.29228178
47	0xbeac2289	-0.33620098
48	0x3e418b9b	0.18900912
49	0xbeb11a4a	-0.3459037
50	0xbdd8f605	-0.105937995
51	0x3e951c0b	0.29122958
52	0x3e7ee986	0.2489377
53	0x3ec0fbca	0.376921
54	0x3e543f11	0.20727183
55	0x3e0a881f	0.13528489
56	0xbe539e46	-0.20665845
57	0xbe86fdb3	-0.26365432
58	0x3e0cc1e1	0.13745834
59	0xbda1c2de	-0.07898496
60	0x3d958d21	0.07302309
61	0x3e52465c	0.20534652
62	0x3ed6b2f9	0.4193342
63	0xbed01859	-0.40643576
64	0xbe230911	-0.15921427
65	0x3e853a99	0.2602127
66	0xbe33fdf2	-0.17577341
67	0x3e302bb6	0.17204174
68	0x3ef388eb	0.47565398
69	0xbe8aa8fe	-0.27082056
70	0x3e922c3d	0.28549376
71	0x3e83bc82	0.25729758
72	0x3eb8d6d7	0.3610141
73	0xbe6c76e7	-0.23092233
74	0xbeaafcc1	-0.3339596
75	0x3ef7d9e5	0.48408428
76	0x3e6fee3a	0.2343072
77	0xbe2d45e8	-0.16921198
78	0x3e83102a	0.2559827
79	0x3c14b334	0.0090759285
80	0xbe07935f	-0.13239811
81	0x3e8bc7ce	0.27300876
82	0x3e44e55e	0.19228122
83	0x3ebb6d5a	0.36606866
84	0x3ecb3cd0	0.39694834
85	0xbe870441	-0.26370433
86	0xbe4338d7	-0.19064651
87	0x3e77f7df	0.24215649
88	0xba5c1a0e	-0.00083962164
89	0x3e994d2f	0.299417
90	0x3e803975	0.25043836
91	0x3e81075c	0.25200927
92	0xbd3ecefe	-0.046584122
93	0x3d1e0b37	0.038584914
94	0xbd4cc4ae	-0.049992256
95	0x3eb4ed6e	0.35337394
96	0xbd1ec7e0	-0.038764834
97	0xbde33f65	-0.11096076
98	0xbd207d82	-0.039182194
99	0x3e337206	0.17523965
100	0xbdbe2bbb	-0.09285685
101	0xbea897b5	-0.32928243
102	0x3e9eec61	0.31039718
103	0x3e2b3a80	0.16721535
104	0x3d9a3ee3	0.07531526
105	0x3c77affc	0.015117642
106	0x3e89ad3a	0.26889974
107	0x3ee05592	0.43815285
108	0xbe1eb67b	-0.15499298
109	0x3e58909e	0.21148917
110	0xbe712cc9	-0.2355224
111	0x3e158e32	0.14605024
112	0x3d14a1c0	0.03628707
113	0x3c75220c	0.014961731
114	0x3ed460cd	0.41480103
115	0x3d1db5c8	0.03850344
116	0x3c8ad688	0.016948
117	0x3d90c97e	0.070696816
118	0x3efc3059	0.49255636
119	0xbf04e74b	-0.51915425
120	0x3dfffbb6	0.12499182
121	0x3cf2531e	0.029580649
122	0x3e2b854d	0.16750069
123	0x3ed873a4	0.42275727
124	0x3e8be5e8	0.27323842
125	0x3f00b1aa	0.50271094
126	0x3e7bb9f2	0.24582651
127	0x3eb9a80d	0.36261025
128	0xbeacb69c	-0.3373307
129	0xbe815138	-0.25257277
130	0xbe93aee1	-0.2884436
131	0x3e7595e7	0.23982964
132	0x3eb2085f	0.34772012
133	0xbe585536	-0.21126255
134	0xbc9b0758	-0.0189244
135	0x3e95b978	0.29243064
136	0x3f24d6b5	0.64390117
137	0x3ed57c16	0.41696233
138	0xbe48c01a	-0.19604531
139	0xbeb6b2a6	-0.35683173
140	0xbeb6a255	-0.35670725
141	0xbde3f771	-0.1113118
142	0x3d332ee1	0.04374588
143	0xbd838704	-0.064222366
144	0x3eed825d	0.46388522
145	0x3e9f8691	0.31157354
146	0x3e4a60e6	0.19763526
147	0x3d8a6caa	0.06759007
148	0xbdcb0e27	-0.09914809
149	0xbdcbbdc3	-0.099483036
150	0xbd94c729	-0.07264549
151	0x3e2fd4bc	0.17170995
152	0xbecbad10	-0.39780474
153	0xbddf4bb7	-0.10903113
154	0x3ec4c66a	0.38432628
155	0xbe887fe6	-0.2666008
156	0x3e4d149a	0.2002739
157	0xbe520e4b	-0.20513265
158	0xbde0c55e	-0.10975145
159	0xbe1c47b8	-0.15261734
160	0xbe5266b9	-0.20546998
161	0xbd918925	-0.07106236
162	0xbefb3ac0	-0.4906826
163	0xbe18a357	-0.14906059
164	0x3d89e7c4	0.06733659
165	0x3e1e9ecd	0.15490265
166	0x3e18b326	0.1491209
167	0xbe5a3c5a	-0.21312085
168	0x3e994734	0.29937136
169	0xbe9280a2	-0.28613764
170	0x3e6e0337	0.23243414
171	0x3eb12636	0.34599465
172	0x3e56c766	0.20974502
173	0x3ce25edc	0.027633123
174	0x3d8c39c7	0.06846958
175	0xbe583365	-0.21113355
176	0xbe0f7f78	-0.14013469
177	0xbe62a099	-0.22131576
178	0xbe5e4248	-0.21704972
179	0xbe74bc63	-0.23899989
180	0xbeeb57c2	-0.4596539
181	0x3eb2a78b	0.3489345
182	0xbecad948	-0.39618897
183	0xbe42e98e	-0.19034407
184	0xbecbf52b	-0.39835486
185	0xbeaac2c4	-0.3335172
186	0xbdcc46a6	-0.099744126
187	0x3e4f7c2f	0.20262216
188	0x3e560e81	0.2090397
189	0x3dab5d1c	0.083673686
190	0xbf298073	-0.6621162
191	0xbe19956a	-0.14998403
192	0x3e61f3bc	0.22065634
193	0xbc011e77	-0.007880799
194	0xbd5ce210	-0.053926528
195	0xbd633691	-0.05547196
196	0xbedefd39	-0.4355257
197	0x3cfcf9e7	0.030880881
198	0x3e608c97	0.21928631
199	0x3e8e6616	0.2781226
200	0x3e826867	0.25470278
201	0xbe2aed3f	-0.16692065
202	0x3f1998c0	0.59998703
203	0xbe297696	-0.16549143
204	0x3ed1c8d0	0.4097352
205	0x3f433c46	0.76263845
206	0xbe8cda85	-0.27510467
207	0xbf320419	-0.695375
208	0x3e00e4c0	0.12587261
209	0x3e5f541f	0.21809433
210	0x3e73a07c	0.23791689
211	0x3d0e4f7a	0.034743764
212	0xbd1a317f	-0.03764486
213	0x3e7a1402	0.24421695
214	0xbe7f5bdf	-0.2493739
215	0xbeb6ac56	-0.35678357
216	0xbe1dc542	-0.15407279
217	0x3eba7b34	0.36422122
218	0x3e39f4c8	0.18159783
219	0x3e40db29	0.18833603
220	0x3e85e3bd	0.26150313
221	0xbdcc4ffd	-0.09976194
222	0x3e542727	0.2071806
223	0x3dde0837	0.108414106
224	0x3ed2eeea	0.41197902
225	0xbe69db3c	-0.22837538
226	0xbe213bb1	-0.15745427
227	0x3bbcac4d	0.0057578445
228	0xbde69848	-0.11259514
229	0xbe53b6e8	-0.20675242
230	0xbe8e3686	-0.27775973
231	0x3eb997c5	0.36248603
232	0x3e8c7eb8	0.2744043
233	0xbeb7b2a8	-0.3587849
234	0x3e3d11f8	0.18463886
235	0x3e9ccc26	0.30624503
236	0x3dcbd17b	0.099520646
237	0xbe17103a	-0.14752284
238	0xbd60bfdd	-0.054870475
239	0x3e25237a	0.16126814
240	0x3f460ac4	0.7736018
241	0xbdbd4ccd	-0.09243164
242	0xbdc9be0c	-0.09850702
243	0x3e933ba9	0.28756455
244	0x3ec5e394	0.3865019
245	0x3e18951c	0.1490063
246	0xbe7995f3	-0.24373607
247	0x3e82b60f	0.25529525
248	0xbf1f0b5f	-0.62126726
249	0x3e5daf3c	0.21648878
250	0x3e6a26c9	0.22866358
251	0x3e522e68	0.20525515
252	0x3ddc24e4	0.10749224
253	0x3e24d188	0.16095555
254	0xbe120dfa	-0.14263144
255	0xbd9d4084	-0.07678321

fc2.weight f4 [128, 500]
0	0xbd2e8668	-0.04260865
1	0x3eb7b444	0.3587972
2	0x3f307068	0.6892152
3	0x3ed55ed0	0.416739
4	0xbe1b0e8e	-0.15142271
5	0x3edd78ec	0.4325632
6	0x3eebff39	0.46093157
7	0x3f02d468	0.51105356
8	0xbec12955	-0.37726846
9	0xbe53a9c7	-0.20670234
10	0x3f01814f	0.50587934
11	0xbe5972f3	-0.21235256
12	0xbdd16420	-0.102241755
13	0x3f5559ac	0.83339953
14	0xbf369e74	-0.7133553
15	0x3e2adf65	0.16686781
16	0x3e96328d	0.29335442
17	0x3f01e3c3	0.5073816
18	0xc01dee67	-2.467676
19	0xbf8c548b	-1.09633
20	0x3f31a28c	0.6938865
21	0xbe9418a9	-0.28925064
22	0xbcec1ef0	-0.028823346
23	0x3dc0894e	0.09401189
24	0xbe9dcc03	-0.3081971
25	0x3ef1c894	0.4722334
26	0x3e4465bb	0.19179432
27	0x3f7a3cee	0.9774922
28	0x3e9b74c4	0.30362523
29	0x3f3e9f62	0.7446195
30	0xbed4eb68	-0.4158585
31	0xbef80cab	-0.48447165
32	0x3f0c7926	0.5487236
33	0x3eaa123b	0.33217034
34	0xbe496d46	-0.19670591
35	0x3eb57946	0.35444087
36	0xbb353827	-0.0027651878
37	0x3ed1e64f	0.40996024
38	0x3edea34a	0.43483955
39	0x3e82bd7a	0.25535184
40	0xbfa5ece1	-1.2962915
41	0xbfc82139	-1.5635139
42	0xbf997be4	-1.1990933
43	0xbf62edf3	-0.8864433
44	0xbda9023d	-0.0825238
45	0xbfba31c0	-1.4546432
46	0xbb6e4bd4	-0.0036361115
47	0x3fe1d8f9	1.764434
48	0xbfaccaae	-1.3499353
49	0xbf64e6e5	-0.8941482
50	0x3ea0a9fe	0.31379694
51	0x3f07b850	0.53015614
52	0xbda0c5e2	-0.07850243
53	0x3eb6d4e7	0.35709307
54	0x3f2d2377	0.6763224
55	0x3ef2b2f1	0.47402146
56	0x3eee8d79	0.4659231
57	0xbdbe68fd	-0.09297369
58	0xbe6b558b	-0.22981851
59	0x3e023ce5	0.12718542
60	0x3f2f21aa	0.6841074
61	0x3ed6e542	0.41971785
62	0x3f18e82f	0.59729284
63	0xbe1100d9	-0.1416048
64	0xbe10bc1a	-0.14134255
65	0x3e841baf	0.2580237
66	0xbfbd2666	-1.4777343
67	0xbfcb4c20	-1.5882607
68	0x3ee73f96	0.451657
69	0x3dc1507c	0.09439179
70	0x3e7c8527	0.24660169
71	0xc013035e	-2.2970805
72	0xbff15289	-1.8853313
73	0x3f652eec	0.8952472
74	0xbf858ec4	-1.0434194
75	0xbe74e381	-0.23914911
76	0xbffcb58f	-1.9742907
77	0x3d89b99e	0.06724857
78	0x3ec15f12	0.37767845
79	0x3e90a71b	0.2825249
80	0xbf409e11	-0.7524119
81	0x3e83b109	0.25721005
82	0x3f0d9cd1	0.5531741
83	0x3e642ee2	0.2228351
84	0xc00abb7d	-2.1676934
85	0xc0200813	-2.5004928
86	0xbfae96cf	-1.3639773
87	0x3edad619	0.4274147
88	0x3f0f3ffd	0.55957013
89	0x3edae8b8	0.42755675
90	0x3ee6fbb4	0.4511391
91	0xbf7c46ee	-0.9854573
92	0xbcfa3699	-0.030543612
93	0x3e500055	0.20312627
94	0x3bea4b65	0.007150101
95	0x3ea0d5c8	0.31413102
96	0xbe2394bf	-0.15974711
97	0x3eb013bd	0.3439006
98	0x3dd799c3	0.105273746
99	0xbf4826e0	-0.7818432
100	0xbf1518b4	-0.5824082
101	0xbe56ec52	-0.20988587
102	0x3f47c89b	0.78040475
103	0xbf20f29b	-0.62870187
104	0xbe24941f	-0.16072129
105	0x3ddf0ac9	0.10890729
106	0x3eda81f9	0.42677286
107	0x3e986528	0.29764676
108	0xbf45f11d	-0.77321035
109	0x3e936057	0.2878444
110	0xbf8b63d3	-1.0889839
111	0x3cddb727	0.027064873
112	0x3e06647c	0.13124269
113	0x3ec57a01	0.38569644
114	0x3ec4b096	0.38415974
115	0xbcfca6f6	-0.030841332
116	0xbd2af69b	-0.041739088
117	0xbe4106e7	-0.1885029
118	0x3ddb5120	0.10708833
119	0xbeebc5bd	-0.460493
120	0x3dfcabab	0.123374306
121	0xbf7dd4a2	-0.99152577
122	0x3f0f953b	0.5608708
123	0x3ef0774a	0.4696601
124	0x3f0b008c	0.5429771
125	0x3ef42279	0.4768255
126	0xbf974e87	-1.182084
127	0xbfb677a7	-1.4255265
128	0x3f56bee7	0.83885044
129	0x3d73a446	0.059482835
130	0xbda13e4e	-0.07873212
131	0x3e6c63c7	0.23084937
132	0x3e22f3f8	0.15913379
133	0x3e1dec1d	0.15422101
134	0xbd3d9e66	-0.04629364
135	0xc0095b1b	-2.1461856
136	0x3ea694f0	0.32535505
137	0xbfe67552	-1.8004553
138	0x3ddbfd60	0.10741687
139	0xbf61d508	-0.88215685
140	0x3ea84471	0.32864717
141	0xbdfeadc6	-0.124354884
142	0xbfd75a28	-1.6824389
143	0xbf880f8e	-1.0629747
144	0xbd667bc2	-0.05627037
145	0x3cf7ac94	0.030233659
146	0xbf70a49d	-0.9400118
147	0xbfa9fb8c	-1.3279891
148	0x3e82e365	0.25564113
149	0x3e45d327	0.1931883
150	0xbf011826	-0.5042747
151	0x3e8ee169	0.2790635
152	0x3e9453da	0.28970224
153	0xbf79edec	-0.97628665
154	0x3f1fb525	0.6238578
155	0xbe9a9afc	-0.3019637
156	0xbf3ccb75	-0.7374795
157	0x3b099737	0.0020994672
158	0x3c2a1f79	0.01038348
159	0xbfb75a5d	-1.4324452
160	0x3dc36648	0.09540993
161	0xbebe81f6	-0.37208527
162	0xbfa38792	-1.2775748
163	0xbedc48ad	-0.43024197
164	0x3ed33048	0.41247773
165	0xbeb6dd81	-0.3571587
166	0x3eb86347	0.36013243
167	0xbedb574e	-0.42840046
168	0x3eaa216e	0.3322863
169	0x3dd47349	0.103735514
170	0x3e3e9e33	0.18615036
171	0x3f0c463d	0.54794675
172	0xbe3a65f7	-0.18202959
173	0x3eba4b38	0.36385512
174	0xbeb3bdc7	-0.35105726
175	0x3ddac65b	0.106823646
176	0x3e0986be	0.13430306
177	0x3e9a3b81	0.30123523
178	0x3dad2bca	0.08455618
179	0x3e20228c	0.15638179
180	0xbf170ff0	-0.59008694
181	0x3ddf03d8	0.10889405
182	0xbf3dcd87	-0.74141735
183	0xbdc0d667	-0.09415894
184	0xbd7e8623	-0.06213964
185	0x3eb73447	0.35782072
186	0x3eb9a37b	0.36257538
187	0x3e072262	0.1319671
188	0x3dde42cc	0.10852584
189	0xbfd40587	-1.6564187
190	0xbeb6372b	-0.35588965
191	0x3eed9219	0.46400526
192	0x3ed331dc	0.41248977
193	0xbf39600b	-0.72412175
194	0x3e6e660e	0.23281118
195	0xc0271e5c	-2.611228
196	0xbd89c236	-0.06726496
197	0xbeb9bf77	-0.3627889
198	0xbfb8b9a6	-1.4431655
199	0x3f004938	0.5011172
200	0x3f19523e	0.59891117
201	0x3e8ec049	0.27881077
202	0xbe85f3ee	-0.26162666
203	0x3e913464	0.28360283
204	0x3ec34ab9	0.38142946
205	0x3f053008	0.52026415
206	0xbd4783f9	-0.048709843
207	0xbf9ce927	-1.2258652
208	0x3ee69828	0.4503796
209	0xbf19485d	-0.5987604
210	0xbff0f376	-1.8824298
211	0xbe9ff55c	-0.31241882
212	0xbf165495	-0.5872281
213	0x3e870381	0.2636986
214	0xbe0d658e	-0.13808271
215	0x3e091735	0.13387759
216	0xbf2bff1e	-0.6718615
217	0x3f6828c7	0.9068722
218	0xbf545a6f	-0.8295049
219	0xbe804e93	-0.25059947
220	0x3f10a1af	0.5649671
221	0x3e3ba363	0.18324046
222	0x3edda4a3	0.4328967
223	0x3e5441b1	0.20728184
224	0x3ee3ac69	0.44467476
225	0xbdd65487	-0.10465341
226	0xbe593fbb	-0.21215717
227	0x3eecbc67	0.4623749
228	0x3ef110cb	0.47083125
229	0xbd909ed7	-0.07061546
230	0xbe08678e	-0.13320753
231	0x3edaeb5a	0.42757684
232	0x3ebd7fe1	0.37011626
233	0xbec2f1af	-0.38075015
234	0x3df20a63	0.11818387
235	0xbfdaad7a	-1.7084191
236	0x3e3213d4	0.17390376
237	0xbedde213	-0.43336543
238	0x3ea3ba7a	0.31978208
239	0x3ece36e8	0.40276265
240	0x3e852def	0.26011607
241	0xbf4d0dde	-0.80099285
242	0xbec523be	-0.38503832
243	0x3f0648c2	0.5245477
244	0x3ed87a80	0.4228096
245	0xbc8ae0d6	-0.016952913
246	0xbf83334d	-1.0250031
247	0x3ea1792d	0.31537762
248	0xbf1e414a	-0.61818373
249	0xbeaec7f0	-0.34136915
250	0x3f34f6e0	0.706892
251	0xbea6d6e1	-0.32585815
252	0xbf195dd1	-0.5990878
253	0x3eff2a73	0.49837074
254	0x3f76c588	0.9639516
255	0x3ab09f9f	0.0013475305

fc2.bias f4 [128]
0	0x3f48d52c	0.78450274
1	0xbe19ae86	-0.15007982
2	0xbde26a59	-0.110554405
3	0xbdb494e9	-0.08817465
4	0xbe127433	-0.14302139
5	0x3ecf55cf	0.40495154
6	0x3e209c4a	0.1568462
7	0x3eef5fa2	0.4675265
8	0x3f0fe723	0.5621206
9	0x3e1fde97	0.15612255
10	0xbe6c5b01	-0.2308159
11	0x3f54242e	0.82867706
12	0x3f5754a8	0.8411355
13	0x3e91c092	0.28467232
14	0xbdce6238	-0.100773275
15	0x3f271dbc	0.65279746
16	0xbe15640a	-0.14588943
17	0xbdff889c	-0.12477228
18	0x3e22e3eb	0.15907256
19	0x3ee6e37e	0.45095438
20	0x3f2109d2	0.6290561
21	0x3f488e28	0.78341913
22	0x3f2b3d20	0.66890144
23	0x3e9ca98e	0.3059811
24	0x3e854e2d	0.26036206
25	0x3ebcb727	0.36858484
26	0x3f48f0ba	0.7849232
27	0x3e8f6cc2	0.28012663
28	0xbdc86a7a	-0.09785934
29	0xbdb2d700	-0.08732414
30	0x3d4bb6fc	0.049735054
31	0xbe021eda	-0.12707081
32	0xbde01afe	-0.10942648
33	0xbe7fcc76	-0.2498034
34	0x3f38dc8b	0.7221152
35	0xbdec242f	-0.11530339
36	0xbe0e03ee	-0.13868687
37	0x3ee3329e	0.44374555
38	0x3ea65c13	0.32492122
39	0xbde80a07	-0.113300376
40	0x3f6a9367	0.9163117
41	0x3f11f8a9	0.5702005
42	0x3f30e05e	0.6909236
43	0x3f396fc7	0.72436184
44	0x3ef7ad99	0.48374632
45	0x3e84ac03	0.25912485
46	0x3ecdceed	0.40196934
47	0xbe430114	-0.1904338
48	0x3f46d8c7	0.77674526
49	0xbe0e2fc9	-0.13885416
50	0x3f629924	0.88514924
51	0x3f0ed04d	0.5578659
52	0x3ed72fd3	0.42028674
53	0x3f59f523	0.85139674
54	0x3e270752	0.16311386
55	0x3f8331fe	1.0249631
56	0x3ec5d603	0.3863984
57	0x3e88064a	0.26567298
58	0x3f0de3d3	0.5542576
59	0x3f054b1a	0.5206772
60	0x3f004d7a	0.5011822
61	0xbdbf9e56	-0.09356372
62	0xbda08c68	-0.0783928
63	0x3f485139	0.78248936
64	0x3f52eb87	0.82390636
65	0xbde9e9cf	-0.114215486
66	0x3ee41e1f	0.4455423
67	0xbe19654c	-0.14980048
68	0x3f149525	0.58040076
69	0xbe045c53	-0.12925844
70	0x3ef48232	0.4775558
71	0x3f548e54	0.83029675
72	0x3eae221b	0.34010395
73	0xbe4966a1	-0.19668056
74	0xbe1c98f3	-0.1529272
75	0x3eb4b43c	0.35293758
76	0x3ef9f563	0.48820028
77	0xbe1ea3c7	-0.15492164
78	0x3f881fa4	1.0634656
79	0xbe22bf84	-0.1589337
80	0x3f1522b7	0.58256096
81	0x3f69c91e	0.91322505
82	0xbe0c7f66	-0.13720474
83	0xbe381c5a	-0.17979565
84	0xbe2a2fc3	-0.16619782
85	0xbdb321b9	-0.087466665
86	0x3f0b9adb	0.54533166
87	0xbe116cdb	-0.14201681
88	0x3f0a6621	0.54062086
89	0x3f286d8a	0.65792143
90	0x3f615e4b	0.88034505
91	0x3f6dde8a	0.9291769
92	0x3f10d1f2	0.5657035
93	0x3f269170	0.6506567
94	0x3f205470	0.6262884
95	0xbdde05a6	-0.10840921
96	0xbe9142e8	-0.28371358
97	0x3eb42c92	0.35190254
98	0x3f401057	0.7502493
99	0x3f2c3b5a	0.67278063
100	0x3f47ba09	0.7801824
101	0xbdd49d9d	-0.10381625
102	0x3f1428b3	0.578746
103	0xbe3f5f8c	-0.18688792
104	0xbe20b4ae	-0.15693924
105	0xbdb8d050	-0.090241075
106	0x3f362717	0.71153396
107	0x3eed4bc8	0.4634688
108	0x3f2ff3d4	0.6873143
109	0xbe35929a	-0.17731705
110	0x3f37de1a	0.71823275
111	0x3f75263f	0.95761484
112	0x3f2ea7b4	0.68224645
113	0x3ef18680	0.47172928
114	0x3e873ba9	0.26412705
115	0x3eeccfcb	0.46252283
116	0x3f72f05b	0.94898003
117	0x3fa0e726	1.2570541
118	0x3ea522fe	0.3225326
119	0xbe083416	-0.13301119
120	0x3f077dac	0.52926135
121	0x3f07c879	0.5304027
122	0x3ec64572	0.38724858
123	0xbef88c1c	-0.48544395
124	0x3f09ffe6	0.53906095
125	0x3ec243ae	0.3794226
126	0x3f51bbce	0.8192719
127	0x3e54975e	0.20760867

fc3.weight f4 [14, 128]
0	0x3cbecca0	0.023290932
1	0xbe2be7f8	-0.16787708
2	0x3e0a4ee9	0.13506664
3	0x3d2d3515	0.04228695
4	0xbd9c235c	-0.07623932
5	0xbe44a412	-0.19203213
6	0x3db4a4cc	0.08820495
7	0x3e5902eb	0.2119252
8	0x3e11bd22	0.14232305
9	0x3f33e2bb	0.7026784
10	0xbe53d805	-0.20687874
11	0xbe96333f	-0.29335973
12	0xbf0a5f50	-0.54051685
13	0xbc382759	-0.01123985
14	0xbd73ca48	-0.059519082
15	0x3b333890	0.0027346946
16	0x3cbeba8a	0.023282308
17	0x3d5c27db	0.053748947
18	0x3e6d3728	0.23165572
19	0x3eade814	0.33966124
20	0x3e83bb40	0.25728798
21	0x3cf2ca5b	0.029637506
22	0x3da75e85	0.08172325
23	0xbe9a3e44	-0.3012563
24	0x3cfed576	0.031107645
25	0xbe65b9c9	-0.22434153
26	0xbe69b81f	-0.22824143
27	0x3dd9c120	0.10632539
28	0x3d4a2748	0.049353868
29	0x3dcc35ee	0.09971224
30	0xbdfbd417	-0.12296312
31	0xbd703fdd	-0.058654655
32	0x3dd80ca4	0.10549286
33	0x3c3d67f7	0.011560432
34	0x3f6ff23b	0.9372899
35	0x3d2b5f98	0.041839212
36	0x3d747103	0.05967809
37	0x3eab3441	0.33438304
38	0x3e0adfc5	0.13561924
39	0x3d984e3e	0.074367985
40	0xbed1929f	-0.40932176
41	0x3e09713d	0.13422103
42	0xbe9630e7	-0.29334185
43	0xbe5f241b	-0.21791117
44	0xbe0c0a65	-0.1367584
45	0x3d820d05	0.063501395
46	0xbdb7bb9f	-0.08971333
47	0x3dc6a7b0	0.096999526
48	0x3de7ab69	0.11311991
49	0x3d0e15e8	0.03468886
50	0xbdc60846	-0.09669547
51	0xbe8f0aeb	-0.27938017
52	0x3ebdcb78	0.37069297
53	0x3edd29eb	0.43196043
54	0xbf4374a9	-0.76349884
55	0x3e03ff45	0.12890346
56	0xbe340011	-0.1757815
57	0x3f0785cd	0.5293854
58	0xbebb48c0	-0.3657894
59	0x3d921440	0.07132769
60	0xbdd3cd5c	-0.103419036
61	0x3d13c878	0.036079854
62	0x3d3b2661	0.045690898
63	0xbf0a4a6c	-0.5401981
64	0x3ef2c6b9	0.47417238
65	0x3e204296	0.156504
66	0xbe5b8bc2	-0.21440032
67	0xbd4d7a58	-0.050165504
68	0xbef263f1	-0.47341874
69	0xbd3626e6	-0.04447069
70	0xbe5dbb08	-0.21653378
71	0xbe722952	-0.23648575
72	0x3f1688e8	0.5880265
73	0x3e13050d	0.14357395
74	0xbd85c9f9	-0.06532664
75	0x3e9744b3	0.295446
76	0xbf3e38bc	-0.7430532
77	0x3d3eddd4	0.04659827
78	0x3f5935e0	0.8484783
79	0x3d14eb2f	0.0363571
80	0x3de929f9	0.11384959
81	0x3e730107	0.2373086
82	0x3db4608b	0.088074766
83	0x3ccd703b	0.02507793
84	0xbe45ca98	-0.19315565
85	0x3e2146fe	0.15749738
86	0x3d80e13c	0.0629296
87	0xbe0c4799	-0.13699187
88	0x3ead0b44	0.33797657
89	0xbcf3d057	-0.02976243
90	0x3f18cf26	0.59691083
91	0xbecfdc1d	-0.4059762
92	0xbe987bd2	-0.29781967
93	0x3dae6a05	0.08516315
94	0xbe912a51	-0.28352597
95	0x3dc58fe1	0.09646583
96	0xbe2e6844	-0.17031962
97	0x3ea6146b	0.32437453
98	0x3e22ea8b	0.15909784
99	0xbe089218	-0.1333698
100	0xbe919994	-0.28437483
101	0x3d9d73b9	0.07688088
102	0xbcaf0ab8	-0.021367416
103	0x3bb10289	0.0054019135
104	0xbda6d7e1	-0.081466444
105	0x3dc20be0	0.09474921
106	0x3f5b658b	0.8570182
107	0xbe636ae9	-0.22208752
108	0xbe8f71b1	-0.28016427
109	0x3cb1d4da	0.02170794
110	0xbd342aa5	-0.04398598
111	0x3d738b5b	0.05945907
112	0x3f34442f	0.7041654
113	0x3e6918b0	0.22763324
114	0x3e762a14	0.24039489
115	0xbd29c0a9	-0.0414435
116	0xbee0da02	-0.43916327
117	0x3f2334e2	0.6375257
118	0x3eac46aa	0.33647662
119	0xbd72608c	-0.059174106
120	0x3e5c722b	0.21527927
121	0xbe47a66a	-0.19497076
122	0x3c04607d	0.008079645
123	0xbf82ce34	-1.0219178
124	0x3d7a1417	0.061054315
125	0x3cbd6bbf	0.023122666
126	0x3fad3595	1.3531977
127	0xbecd48fc	-0.40094745
128	0xbea8a47a	-0.32937986
129	0x3d1f5774	0.03890176
130	0x3e48d388	0.19611943
131	0x3e4628f7	0.19351564
132	0x3d8d78dc	0.06907818
133	0xbdfebd81	-0.12438489
134	0x3cef066e	0.02917787
135	0x3da9f574	0.082987696
136	0x3e0109ba	0.12601367
137	0xbf8450cc	-1.0337157
138	0xbe60f021	-0.21966602
139	0x3d8588f4	0.06520262
140	0x3e961fe5	0.2932121
141	0xbe112a0b	-0.14176194
142	0x3e20fa72	0.15720537
143	0xbb9fe466	-0.004879522
144	0x3d093144	0.03349425
145	0x3d29adf2	0.041425653
146	0xbe7e7ba2	-0.2485185
147	0xbe8b1df1	-0.2717128
148	0x3ed499de	0.4152364
149	0x3d36a29b	0.044588666
150	0xbd6c9c64	-0.057766333
151	0xbd5c9623	-0.05385412
152	0x3ee57f1d	0.44823542
153	0x3f3192c4	0.6936457
154	0x3e2eaba0	0.17057657
155	0xba5b5d68	-0.00083681056
156	0xbc5ae33b	-0.01335984
157	0x3e139a07	0.14414226
158	0x3d81dae0	0.06340575
159	0x3dd68721	0.104749925
160	0x3d13f31e	0.036120526
161	0x3e29ce6b	0.16582648
162	0x3ed27d61	0.41111282
163	0x3d1a7ee2	0.03771866
164	0x3dcfed26	0.10152654
165	0x3e251693	0.16121893
166	0xbd438421	-0.04773343
167	0x3e26cdde	0.1628947
168	0x3dc0898a	0.094012335
169	0xbebe607f	-0.37182996
170	0x3e9bb260	0.30409527
171	0xbf1e0d76	-0.6173929
172	0xbf58ebfe	-0.84735096
173	0x3aad977e	0.0013244001
174	0xbf115ac6	-0.56779134
175	0xbdc79aad	-0.09746299
176	0xbf2683fc	-0.6504514
177	0x3ddd3c64	0.10802534
178	0xbf8e007d	-1.1093899
179	0x3eda4fae	0.42638916
180	0xbf685dfa	-0.90768397
181	0x3e61f1c0	0.22064877
182	0xbc3112f6	-0.010807743
183	0xbd819c31	-0.06328619
184	0xbf0cbdaa	-0.54976904
185	0xbe539daa	-0.20665613
186	0xbcaa32d1	-0.020776184
187	0x3bf6aae0	0.007527694
188	0x3e139162	0.14410928
189	0x3d85a489	0.06525523
190	0x3d78f424	0.060779706
191	0xbc567fa6	-0.013091957
192	0x3eaf3d9f	0.342267
193	0x3e5295da	0.20564976
194	0xbc1a4c43	-0.009417596
195	0x3df20022	0.118164316
196	0x3e1d21fb	0.15344994
197	0xbddb81e1	-0.10718132
198	0x3f83e4aa	1.0304158
199	0x3ca27ae0	0.019833982
200	0x3deb42ce	0.11487351
201	0xbe16c61a	-0.14724007
202	0x3dc8d412	0.09806074
203	0x3e43a496	0.19105753
204	0x3e8abed5	0.27098718
205	0x3d86e7d1	0.06587184
206	0x3e8cb4de	0.2748174
207	0x3d7a4712	0.061102934
208	0xbe797fba	-0.2436513
209	0x3ddd0aae	0.107930526
210	0x3d885f92	0.066588536
211	0x3e29ae21	0.16570331
212	0x3e4a2244	0.19739634
213	0x3e2c85d6	0.1684793
214	0x3e1731d5	0.14765103
215	0x3d90f42d	0.07077823
216	0xbd8f302e	-0.069916114
217	0x3deeefb7	0.11666816
218	0x3ee9c284	0.45656216
219	0x3e88714d	0.26648942
220	0x3f0e307c	0.5554273
221	0x3e598e85	0.21245773
222	0xbdf55762	-0.119795576
223	0x3d91c839	0.071182676
224	0xbfa3c33c	-1.2793956
225	0x3ecbd9af	0.39814517
226	0xbdb5239b	-0.08844682
227	0x3ebcfd80	0.36912155
228	0xbf831d2e	-1.024328
229	0x3deb07b2	0.11476077
230	0x3dc56827	0.09639006
231	0x3e8fbc47	0.28073332
232	0x3d39a4b3	0.045323085
233	0x3d7fec34	0.06248112
234	0xbf4ac0fa	-0.7920071
235	0x3e843fc6	0.25829905
236	0x3ed537cd	0.41644135
237	0x3db39c64	0.087700635
238	0xbe9968cf	-0.29962775
239	0xbd125770	-0.03572792
240	0x3ed5ae31	0.4173446
241	0x3f2beee4	0.67161393
242	0x3f563e97	0.83689255
243	0x3e85da78	0.2614324
244	0x3e3e30e6	0.18573341
245	0x3e366132	0.17810515
246	0x3d34d8de	0.044152133
247	0xbda9d577	-0.08292668
248	0xbd57652d	-0.052586723
249	0x3ec75b6c	0.38936937
250	0x3f29feb6	0.66404283
251	0x3dd0e532	0.101999655
252	0xbd00e153	-0.031464886
253	0x3e0cab50	0.13737226
254	0xbeaa8560	-0.33304882
255	0x3e458ae1	0.1929126

fc3.bias f4 [14]
0	0x3f0f2791	0.5591975
1	0x3e599864	0.21249539
2	0x3efdb73b	0.49553856
3	0x3e6668d7	0.2250093
4	0x3ec5155e	0.38492864
5	0x3f0d139a	0.55108035
6	0x3f33b430	0.7019682
7	0x3f2c1e0f	0.67233366
8	0x3ec5ef8b	0.3865932
9	0x3e620b5f	0.2207465
10	0x3f4d7722	0.8025991
11	0x3eec6e08	0.46177697
12	0x3eab4b16	0.33455724
13	0x3f31d4ca	0.69465315
