sign_translation_JH/model_pt/FC_Model_vowel.pt (torch, 395918 bytes, 6 tensors)

fc1.weight f4 [500, 63]
0	0x3ec3a049	0.38208225
1	0xbead44e6	-0.33841628
2	0xbeeaadc7	-0.45835707
3	0xbe6c171c	-0.2305569
4	0xbe72875c	-0.23684448
5	0xbdb11f98	-0.08648604
6	0xbf54cbef	-0.8312368
7	0xbf031f9b	-0.512201
8	0xbe327525	-0.174275
9	0x3e238bf5	0.15971358
10	0x3d3446f6	0.044012986
11	0x3dd0ad0d	0.10189257
12	0x3f89f87f	1.077896
13	0x3eafa284	0.34303677
14	0xbe8cc8ad	-0.27496853
15	0x3d9f1cfe	0.07769202
16	0x3f93e5af	1.1554469
17	0x3eb7cf4e	0.35900348
18	0x3e19a939	0.1500596
19	0x3db1deab	0.08685049
20	0xbd2443da	-0.04010377
21	0x3e0ef705	0.13961418
22	0xbe721af8	-0.236431
23	0xbd9308d0	-0.07179415
24	0x3eb743ab	0.35793814
25	0x3e84588f	0.25848815
26	0xbd972866	-0.07380752
27	0xbe80addb	-0.2513264
28	0xbef26865	-0.47345272
29	0xbf34752c	-0.7049129
30	0x3ef08eff	0.46984097
31	0x3e72b155	0.2370046
32	0x3f45440b	0.7705695
33	0x3efebc5e	0.49753088
34	0x3e210a2c	0.15726537
35	0xbe15eb78	-0.14640605
36	0xbefa288e	-0.48859066
37	0xbf062730	-0.52403545
38	0xbe94d92e	-0.29071945
39	0xbe571bad	-0.21006651
40	0x3ee9e029	0.45678833
41	0x3f5a04d1	0.851636
42	0xbed9d047	-0.42541716
43	0xbecaa89a	-0.39581758
44	0xbf17bc84	-0.59272027
45	0xbec3850d	-0.38187447
46	0xbe828175	-0.25489393
47	0xbe80ce83	-0.25157556
48	0xbd76dff0	-0.060272157
49	0x3d9e49fb	0.077289544
50	0x3debd913	0.11516013
51	0xbcd04e74	-0.025428034
52	0xbf697a34	-0.9120209
53	0x3e700018	0.23437536
54	0x3f83b71c	1.0290256
55	0x3d579dcd	0.052640725
56	0x3b33161d	0.0027326413
57	0x3faa0941	1.3284074
58	0x40099fbd	2.1503747
59	0xbe30a13e	-0.17249009
60	0x3ef1241a	0.47097856
61	0x3e93b783	0.28850946
62	0x3e5e7b74	0.21726781
63	0xbea836d5	-0.32854334
64	0xbf04886b	-0.5177066
65	0xbf340f36	-0.7033571
66	0x3e72498f	0.23660873
67	0x3effe9dd	0.4998311
68	0xbeac7055	-0.33679453
69	0x3eca03d2	0.3945604
70	0x3f001f3a	0.5004765
71	0x3ebc424c	0.3676933
72	0xbde82b0a	-0.11336334
73	0x3dc79e64	0.097470075
74	0xbf0571ee	-0.5212697
75	0xbf53e0e0	-0.82765007
76	0x3ebe9281	0.3722115
77	0x3f054ff2	0.5207511
78	0xbdd1c4a3	-0.102425836
79	0xbea4e562	-0.32206255
80	0x3f43a052	0.76416504
81	0x3f831c37	1.0242985
82	0x3e726080	0.23669624
83	0xbdac6358	-0.08417386
84	0xbe26de60	-0.16295767
85	0x3e173841	0.14767553
86	0x3f0e006e	0.55469406
87	0x3f1fe4b6	0.6245836
88	0x3d7c15f3	0.06154437
89	0x3f191369	0.5979524
90	0xbe6927f1	-0.22769143
91	0xbf3e8f1d	-0.74437124
92	0xbfaacebd	-1.3344342
93	0x3f355731	0.7083617
94	0xbe9f9e0d	-0.3117527
95	0x3fc7ed9d	1.5619389
96	0x3ffef340	1.9917984
97	0xbeaf7bec	-0.34274232
98	0xbf425e28	-0.7592492
99	0xbf10eb47	-0.56609005
100	0xbf7274cf	-0.94709486
101	0xbf2437e9	-0.6414781
102	0xbdaee001	-0.08538819
103	0x3f2a74bb	0.66584367
104	0x3f73be25	0.9521201
105	0xbf00c2b5	-0.502971
106	0xbea6a456	-0.32547253
107	0x3d8892af	0.06668603
108	0x3f150f3c	0.5822637
109	0x3f9d7c80	1.2303619
110	0xbf430faa	-0.76195776
111	0x3ecb2ee7	0.3968422
112	0x3f1a5e96	0.60300577
113	0x3f0d18d4	0.5511601
114	0xbf366e5d	-0.7126215
115	0xbf3ea5de	-0.74471843
116	0x3dc6ec5e	0.09713052
117	0x3f450629	0.76962525
118	0xbf573851	-0.84070307
119	0xbe86948d	-0.2628521
120	0xbe87bb06	-0.26509875
121	0xbe1f0432	-0.15528944
122	0xbf3917db	-0.72302026
123	0x3e1ffe90	0.15624452
124	0x3e3b343c	0.18281645
125	0x3c5fa79b	0.0136508
126	0x3f071cf8	0.5277858
127	0x3f387edb	0.72068566
128	0x3d958e80	0.0730257
129	0xbdb84a75	-0.089985766
130	0x3e37f2ef	0.17963766
131	0x3ddde4ac	0.10834631
132	0xbd51a1c9	-0.05117968
133	0xbeacefd8	-0.33776736
134	0xbed52f29	-0.41637543
135	0xbf2739dd	-0.6532267
136	0xbfc0d5a6	-1.50652
137	0xbf4b55c1	-0.79427725
138	0x3ee5e5d0	0.44901896
139	0xbf5862a6	-0.84525526
140	0xbf90bb09	-1.1307079
141	0x3e27c5e1	0.16384079
142	0x3fb96e88	1.4486856
143	0xbf9b75f3	-1.214537
144	0xbf433e7e	-0.7626723
145	0x3f0d4336	0.5518068
146	0x3f9d0d09	1.2269603
147	0xbe6dba75	-0.23215659
148	0xbeb3167a	-0.34978086
149	0x3e156d24	0.14592415
150	0x3efb7b4e	0.49117512
151	0x3f82dd88	1.0223856
152	0xbea02ec3	-0.31285676
153	0x3d9e9134	0.07742539
154	0x3cf12c2c	0.029440008
155	0xbdda73a2	-0.106665865
156	0xbebc5310	-0.36782122
157	0x3f7342d6	0.9502386
158	0x3da4463d	0.080212094
159	0xbf5d00b0	-0.86329174
160	0xbe27c236	-0.1638268
161	0x3f09c4e1	0.5381604
162	0x3f1c49c0	0.61050034
163	0x3f085ae0	0.53263664
164	0x3e8ad32b	0.27114233
165	0x3db56496	0.08857076
166	0xbe112018	-0.14172399
167	0x3d3fa71c	0.046790227
168	0xb9c72468	-0.00037983363
169	0x3d8bc514	0.06824699
170	0x3d52bc05	0.05144884
171	0x3efdca49	0.49568394
172	0x3f5104b7	0.8164782
173	0xbf6ff688	-0.9373555
174	0xbeb9f3fe	-0.36318964
175	0x3cdf8238	0.027283773
176	0x3e3b5520	0.18294191
177	0xbf811542	-1.0084612
178	0xbfa7086d	-1.3049446
179	0xbf18c051	-0.5966845
180	0x3df915ff	0.121623985
181	0xbf38261a	-0.7193314
182	0xbefb34c7	-0.49063703
183	0x3d802962	0.06257893
184	0x3f32b8d6	0.6981329
185	0xbe0b83fd	-0.13624568
186	0x3f183365	0.5945342
187	0x3fae71f6	1.3628528
188	0x3fd39687	1.6530312
189	0x3e9f95d5	0.31169
190	0x3d96fdce	0.07372628
191	0xbd96d8a3	-0.07365539
192	0xbc19f4d1	-0.009396748
193	0x3f20cdca	0.6281401
194	0xbe04ad30	-0.12956691
195	0xbf694417	-0.9111952
196	0xbf665874	-0.8997872
197	0xbf8cc38a	-1.0997174
198	0x3dd2f07b	0.10299774
199	0xbea4a933	-0.3216034
200	0x3f082ae6	0.5319046
201	0x3fa01d74	1.2508988
202	0x3e40fdba	0.18846789
203	0x3e86ca8c	0.26326406
204	0x3e906a13	0.28205928
205	0x3f6b5434	0.9192536
206	0x3ee82295	0.45338884
207	0x3e818878	0.2529943
208	0x3c3709e1	0.011171789
209	0x3e1ecf33	0.15508728
210	0xbdd9b95d	-0.10631058
211	0x3e24ef05	0.16106804
212	0x3ea7ee3c	0.32798946
213	0x3ec85d0b	0.39133486
214	0x3dcaee23	0.09908702
215	0x3e86ea3f	0.2635059
216	0x3d260ac7	0.04053762
217	0xbf2d969c	-0.67807937
218	0xbf54d41a	-0.8313614
219	0x3ea95d0d	0.33078805
220	0x3f1725f7	0.59042305
221	0x3e41c011	0.18920924
222	0xbecc05ae	-0.39848083
223	0x3e9cb870	0.30609465
224	0x3f296d46	0.66182363
225	0x3ef14712	0.47124535
226	0x3ebc1e13	0.36741695
227	0x3d9dbb38	0.07701725
228	0x3e189fe9	0.14904751
229	0x3d8ccc9d	0.068749644
230	0x3d718033	0.05896015
231	0xbf255ff7	-0.64599556
232	0xbf420dcf	-0.7580232
233	0xbf1f807c	-0.62305427
234	0xbf1d86b1	-0.6153365
235	0xbf1d22d4	-0.6138127
236	0x3daff2ff	0.0859127
237	0x3fb9e607	1.4523324
238	0x3f3766aa	0.7164103
239	0x3e9dd8f7	0.30829594
240	0x3eab7492	0.33487374
241	0x3f116010	0.56787205
242	0x3eafceb0	0.34337378
243	0x3da5a49d	0.08088038
244	0x3e9a1698	0.30095363
245	0x3f3a66b6	0.72812974
246	0x3f924d71	1.1429883
247	0x3f9aa64b	1.2081999
248	0x3e38f9d7	0.18064056
249	0x3e6b8ce0	0.23002958
250	0x3e338a93	0.1753333
251	0xbb3e7633	-0.0029062151
252	0x3ec8aa85	0.39192596
253	0x3f05082f	0.5196561
254	0x3e194dbd	0.14971061
255	0x3d3704d9	0.044682357

fc1.bias f4 [500]
0	0x3f208088	0.62696123
1	0x3ec73563	0.38907918
2	0xbdecbc42	-0.11559345
3	0xbf0422e3	-0.5161573
4	0x3f62079f	0.8829288
5	0xbbe128e3	-0.006871329
6	0x3e72f7c7	0.23727332
7	0x3ea0bca0	0.3139391
8	0x3d17cc11	0.037059847
9	0xbf098efe	-0.53733814
10	0x3e88ef55	0.26745096
11	0x3eab9183	0.33509454
12	0x3e21d544	0.1580401
13	0x3f057019	0.5212417
14	0xbc602c27	-0.013682402
15	0xbe4ad263	-0.19806819
16	0x3fb4bbd6	1.4119823
17	0xbe9b98e2	-0.30390078
18	0xbebf5f2e	-0.37377304
19	0x3e88891e	0.26667112
20	0x3ec69a57	0.38789627
21	0xbd95dc7e	-0.07317446
22	0xbec929fa	-0.39289838
23	0xbfc782db	-1.5586809
24	0x3e669ab6	0.22519955
25	0x3ef66cee	0.48129982
26	0x3e049ea7	0.12951146
27	0x3e1733fb	0.14765923
28	0x3f1857cd	0.59508973
29	0x3f481208	0.78152514
30	0x3ecb0193	0.3964964
31	0xbf1aec98	-0.60517263
32	0xbe8006ff	-0.25005338
33	0xbdba8955	-0.09108225
34	0x3e9bdfcf	0.3044419
35	0x3ee62642	0.44951063
36	0x3ea71703	0.32634744
37	0xbf3cfd11	-0.7382365
38	0x3f82aa6e	1.0208261
39	0x3eb3d626	0.3512432
40	0xbf0873e8	-0.5330186
41	0x3f220be9	0.63299423
42	0x3e0fe22a	0.14051118
43	0xbe88ddbf	-0.2673168
44	0x3e6b67f7	0.22988878
45	0x3f3341b5	0.70022136
46	0x3e1cbb50	0.15305829
47	0xbeb628f4	-0.3557812
48	0xbed134e9	-0.4086068
49	0x3ec1c7c0	0.3784771
50	0x3e064c56	0.13115057
51	0x3e433113	0.19061689
52	0xbd525432	-0.051349826
53	0x3e742ae6	0.2384449
54	0xbe723fba	-0.23657122
55	0xbf1eb7df	-0.61999315
56	0xbd60449b	-0.054752927
57	0x3d2ac86e	0.04169505
58	0xbdee4c27	-0.11635619
59	0x3da79d00	0.08184242
60	0xbea3bfbf	-0.31982228
61	0xbdf95b8f	-0.121756665
62	0xbd30f4c0	-0.04320216
63	0x3edbc398	0.42922664
64	0x3e5be110	0.21472573
65	0x3e0cbdcb	0.13744275
66	0x3e67ab35	0.22623904
67	0x3ea1c103	0.3159257
68	0x3f92f3d6	1.1480663
69	0x3ee3aa28	0.44465756
70	0x3ed69eff	0.4191818
71	0x3d53daa3	0.05172218
72	0x3dcffee8	0.101560414
73	0x3ed311cc	0.41224515
74	0x3eda8fd1	0.42687848
75	0xbe80e80f	-0.25177047
76	0x3d1bea45	0.038065214
77	0xbe63157d	-0.22176166
78	0xbe342aca	-0.17594448
79	0x3d8fdb15	0.070242085
80	0x3f091751	0.53551203
81	0x3f2a64d8	0.66560125
82	0x3cc0940f	0.0235081
83	0x3f07d762	0.53063023
84	0xbea36740	-0.3191471
85	0xbf2e0172	-0.67970955
86	0x3da50d0a	0.08059128
87	0x3e4ebcc5	0.20189197
88	0x3eaf1a25	0.34199634
89	0x3b894097	0.004188608
90	0x3f25973d	0.64683896
91	0x3df5326f	0.1197251
92	0xbeae2aa0	-0.34016895
93	0x3d8066ee	0.06269632
94	0x3e9661b0	0.29371405
95	0xbd3622bd	-0.044466723
96	0x3e2ef533	0.17085724
97	0xbd736d72	-0.059430547
98	0x3f606ee7	0.87669224
99	0x3e9c1a63	0.3048888
100	0x3f8a4508	1.0802317
101	0x3ea044f1	0.31302598
102	0x3e11ad3c	0.1422624
103	0x3ed67c16	0.41891545
104	0x3d568671	0.052374307
105	0x3eed30f0	0.463264
106	0x3f0c9182	0.5490953
107	0xbe275417	-0.16340671
108	0xbd038450	-0.032108605
109	0x3e300c2f	0.17192148
110	0x3debdee4	0.115171224
111	0x3f961601	1.1725465
112	0x3e44e256	0.19226965
113	0x3f4bba11	0.7958079
114	0x3e75702d	0.23968573
115	0x3ecd1fcd	0.40063325
116	0x3f06dc75	0.5268014
117	0xbeedf92f	-0.46479174
118	0x3e819ab2	0.25313336
119	0x3e535b5e	0.20640323
120	0xbe79441a	-0.24342385
121	0x3f31ad67	0.69405216
122	0x3d92d883	0.071702026
123	0xbe8705ff	-0.26371762
124	0x3e5844d4	0.21120006
125	0x3fc1839a	1.5118287
126	0x3f00e05c	0.50342345
127	0x3e884433	0.26614532
128	0xbefbcc67	-0.49179384
129	0x3f2f9b3b	0.6859624
130	0xbf01b520	-0.50667
131	0x3e302e27	0.17205106
132	0xbe0aba32	-0.1354759
133	0x3e4024ea	0.18764082
134	0x3f37afcc	0.7175262
135	0xbe5ef47f	-0.21772955
136	0x3de8e807	0.11372381
137	0x3f41c7f8	0.75695753
138	0xbf09f49d	-0.53888875
139	0x3e98585d	0.29754916
140	0x3f00c2ac	0.50297046
141	0x3ec064da	0.37576944
142	0xbdb7ee06	-0.08980946
143	0x3e517706	0.2045556
144	0x3d11aba1	0.03556407
145	0x3e9d9553	0.30777988
146	0xbe2a0d92	-0.16606739
147	0x3f101ec8	0.5629697
148	0x3f8ceeb1	1.1010343
149	0xbf02c6c9	-0.5108457
150	0xbe78900d	-0.24273701
151	0xbe13a43c	-0.14418119
152	0xbe094c91	-0.13408114
153	0x3e6fe43b	0.23426907
154	0xbe680d4b	-0.22661321
155	0xbe751ec5	-0.23937519
156	0xbcc1da26	-0.023663592
157	0xbf001ed2	-0.5004703
158	0x3fa414c6	1.281884
159	0x3e863ac4	0.2621671
160	0xbdbc22e6	-0.09186344
161	0xbefb4259	-0.49074057
162	0xbe85a694	-0.26103652
163	0x3d59ac86	0.053143047
164	0x3eb1c7ef	0.3472285
165	0x3ee0a3cc	0.43874967
166	0xbf2b04ab	-0.66804
167	0xbd9a51f6	-0.07535164
168	0xbd990ac6	-0.07472758
169	0xbcf1e25c	-0.029526882
170	0x3e6e890e	0.2329447
171	0xbd076dbe	-0.033063643
172	0xbec1ee5a	-0.3787716
173	0xbda4ab9a	-0.08040543
174	0x3e263291	0.16230227
175	0xbe16143b	-0.14656155
176	0x3d75c29c	0.060000047
177	0x3edbd449	0.42935398
178	0x3fc59cf8	1.5438528
179	0x3d2f415c	0.04278694
180	0xbd5dd64c	-0.054159448
181	0xbe3a82cd	-0.18213959
182	0x3eac9013	0.3370367
183	0xbea799c4	-0.327345
184	0x3f18bb4b	0.59660786
185	0x3f0dca42	0.55386746
186	0x3edd351a	0.43204576
187	0x3f315c55	0.6928151
188	0x3ddee8dd	0.10884259
189	0x3e48b41e	0.19599959
190	0xbe38f06d	-0.18060465
191	0xbddfb39b	-0.10922929
192	0xbe251a26	-0.16123256
193	0x3f0165e9	0.5054613
194	0xbe915165	-0.28382412
195	0x3ed8db6f	0.42354915
196	0x3e1b6786	0.1517621
197	0xbe832cfe	-0.25620264
198	0xbe300539	-0.17189492
199	0x3ed1d434	0.4098221
200	0x3e9e05d9	0.30863836
201	0x3dd10d7b	0.10207649
202	0x3f421f82	0.7582933
203	0xbc0354b8	-0.008015804
204	0x3e00fe92	0.12597111
205	0xbe19e3be	-0.15028283
206	0x3e4211cf	0.18952106
207	0xbe9c8ea7	-0.30577585
208	0xbe87ef0b	-0.26549563
209	0x3e56f4f2	0.20991877
210	0x3ec6789d	0.38763896
211	0x3e3c11fc	0.18366235
212	0x3f6bb96f	0.92079824
213	0x3e626dc8	0.2211219
214	0x3f1135e2	0.56722844
215	0x3cb46550	0.022020966
216	0xbdbe018d	-0.092776395
217	0x3e1e2e55	0.15447362
218	0xbea740bb	-0.32666573
219	0x3f4a15e0	0.7893963
220	0x3e187ed0	0.14892125
221	0xbe3c7ee4	-0.1840778
222	0x3eba481e	0.36383146
223	0x3e08b394	0.13349754
224	0x3e0b30f8	0.13592899
225	0xbeb901c9	-0.36134174
226	0x3f5b5141	0.8567086
227	0x3e7d6221	0.24744464
228	0x3f21885f	0.6309871
229	0x3e1537fb	0.14572136
230	0x3ec7c842	0.39019972
231	0x3e679f79	0.22619428
232	0xbd1ceaa0	-0.038309693
233	0x3cae278f	0.021259097
234	0x3e42b5a7	0.19014607
235	0xbde41726	-0.11137228
236	0x3cd4b211	0.025963815
237	0x3d230c51	0.039806668
238	0x3e9e6e2f	0.30943438
239	0xbdd638b8	-0.10460037
240	0x3ce1bdd4	0.027556337
241	0xbd7879a3	-0.060662877
242	0xbec26e28	-0.37974668
243	0x3e5956f2	0.21224573
244	0x3e85ae80	0.26109695
245	0x3e07b0af	0.13250993
246	0x3ca1f2c1	0.019769074
247	0x3f01c798	0.5069518
248	0x3f5c1167	0.85964054
249	0x3e7677f4	0.24069196
250	0x3e364187	0.17798434
251	0xbd962a34	-0.07332268
252	0xbfab6168	-1.3389101
253	0x3e00dc74	0.12584096
254	0x3e461eb1	0.19347645
255	0x3e85d9ed	0.26142827

fc2.weight f4 [128, 500]
0	0x3df609aa	0.12013562
1	0xbe0cb2af	-0.13740037
2	0x3e243f68	0.16039813
3	0xbdfddf86	-0.12396149
4	0xbd9a95ab	-0.07548078
5	0x3e156351	0.14588667
6	0xbdc47545	-0.0959268
7	0xbe0c5c9f	-0.13707207
8	0xbe265fb4	-0.16247445
9	0xbde56ca7	-0.112023644
10	0xbe047e4b	-0.12938802
11	0x3e129a62	0.14316705
12	0xbdfbf3c9	-0.12302358
13	0xbda19ed8	-0.07891625
14	0xbe089bbf	-0.13340662
15	0x3e03c825	0.12869318
16	0x3e17cbbf	0.14823817
17	0xbdf26c89	-0.11837108
18	0xbddaf41c	-0.106910914
19	0x3dd7aa0b	0.1053048
20	0xbe1034e7	-0.1408268
21	0xbdf094f4	-0.117471606
22	0xbdee91f7	-0.11648934
23	0xbdac73ea	-0.08420546
24	0xbdc2db2f	-0.09514462
25	0xbe20eeeb	-0.1571614
26	0x3e18dea1	0.14928676
27	0xbe0eb387	-0.13935672
28	0x3e20927c	0.1568088
29	0xbddd78d6	-0.10814063
30	0x3e1255a3	0.1429048
31	0xbe0250ad	-0.12726088
32	0xbdab2cc9	-0.083581515
33	0xbdf3b4a8	-0.11899692
34	0xbe0259db	-0.1272959
35	0xbe0dfc44	-0.13865763
36	0x3e23697c	0.15958208
37	0xbe0bb2f7	-0.13642488
38	0xbde3edac	-0.11129317
39	0xbe0820e4	-0.13293797
40	0xbdd90108	-0.105959
41	0xbe03108e	-0.12799284
42	0xbe022fbc	-0.12713522
43	0xbda921a2	-0.08258368
44	0xbdf5de7a	-0.12005325
45	0x3dc7184c	0.09721431
46	0x3e23669e	0.15957114
47	0x3e102c35	0.14079364
48	0xbe1add22	-0.15123418
49	0xbdfb2141	-0.12262202
50	0x3daa059e	0.08301853
51	0xbdf0749f	-0.11740994
52	0xbdb5f79d	-0.08885119
53	0xbd9e10d4	-0.077180535
54	0x3e0ba0ef	0.1363561
55	0xbdca1a08	-0.09868246
56	0x3dd22025	0.10260037
57	0xbdbbd7df	-0.091720335
58	0x3e1bc2f1	0.15211083
59	0x3caec76c	0.021335326
60	0xbdb64f85	-0.08901886
61	0xbe20aab7	-0.15690123
62	0xbdc82551	-0.097727425
63	0xbdb63d63	-0.08898427
64	0xbdd63a6f	-0.10460364
65	0xbdf344f7	-0.118783884
66	0x3c97eedf	0.01854652
67	0x3dffb223	0.12485149
68	0xbdf995da	-0.12186785
69	0xbdaec22e	-0.085331306
70	0xbdc74e2c	-0.09731707
71	0xbe1b173a	-0.15145579
72	0xbdafffa4	-0.085936815
73	0xbdf5f8e7	-0.12010365
74	0xbe0c132a	-0.13679186
75	0xbdb3eebb	-0.087857686
76	0xbd146dce	-0.03623753
77	0xbe25fb68	-0.16209185
78	0xbdf4b033	-0.1194767
79	0xbe271d2a	-0.16319719
80	0xbdcd0a42	-0.10011722
81	0x3e1dbc12	0.15403774
82	0xbdc25cfd	-0.09490392
83	0xbdcb4d40	-0.09926844
84	0xbe0933ca	-0.13398662
85	0xbddbf0ad	-0.10739265
86	0xbde17bc9	-0.11009938
87	0xbdad1d5c	-0.084528655
88	0xbdacceaf	-0.08437859
89	0xbdbd31eb	-0.09238037
90	0xbdf9f954	-0.12205759
91	0xbe05248f	-0.13002227
92	0xbdc17a4c	-0.094471544
93	0xbd9cdd4a	-0.07659395
94	0xbde5948f	-0.11209976
95	0xbdeaadb7	-0.11458915
96	0xbc875432	-0.01651964
97	0x3dbe5831	0.09294165
98	0xbde438c1	-0.111436374
99	0xbd9c2b1f	-0.07625412
100	0xbdac0b51	-0.08400596
101	0xbdc6f4e8	-0.09714681
102	0xbd9e9fe5	-0.07745341
103	0xbe0e1fd7	-0.13879333
104	0xbe05293b	-0.1300401
105	0xbda773bd	-0.08176372
106	0xbe2446f7	-0.16042696
107	0xbdc9d9da	-0.09856005
108	0xbdf2a404	-0.1184769
109	0x3deae30b	0.11469086
110	0xbdbf2051	-0.09332336
111	0xbe08a743	-0.13345055
112	0x3dbd2104	0.09234813
113	0xbdb37445	-0.08762411
114	0xbddf6dca	-0.109096125
115	0xbdcadfa7	-0.099059395
116	0xbdf4ee79	-0.119595475
117	0x3e13d02e	0.14434883
118	0x3db99e2a	0.090633705
119	0xbdbec69b	-0.09315225
120	0xbe1a5707	-0.15072261
121	0xbda41c54	-0.08013216
122	0xbe13837b	-0.14405625
123	0xbe113f37	-0.14184271
124	0xbe1ff91c	-0.15622371
125	0xbdbab461	-0.09116436
126	0x3de66bd5	0.11251036
127	0xbdce1065	-0.10061721
128	0xbe10278a	-0.14077583
129	0xbe1b0608	-0.1513902
130	0x3c78359c	0.0151495
131	0xbdbfa2cf	-0.09357225
132	0xbe28859b	-0.16457216
133	0x3db35203	0.08755877
134	0xbd1904fc	-0.03735827
135	0xbe03f3ff	-0.12886046
136	0xbd9ae9c7	-0.07564121
137	0xbe1135d4	-0.1418069
138	0x3d9ad968	0.07560998
139	0x3de0ff53	0.10986199
140	0x3dfaf6a4	0.12254074
141	0x3daac267	0.083378606
142	0x3da5f794	0.081038624
143	0xbd9d17a3	-0.07670524
144	0xbe25131f	-0.16120575
145	0x3e029c38	0.12754905
146	0xbdfaf279	-0.12253279
147	0x3db9ab5c	0.09065887
148	0xbdee5ab8	-0.11638397
149	0xbdb873a0	-0.09006429
150	0xbe1c0f88	-0.152403
151	0x3e0f68f7	0.14004885
152	0xbe024045	-0.1271983
153	0xbdd93a2d	-0.10606799
154	0xbe1c57e8	-0.15267909
155	0x3e1e423d	0.15454955
156	0xbe001934	-0.12509614
157	0xbe031f30	-0.12804866
158	0xbda0784a	-0.07835443
159	0x3e00d9cf	0.12583087
160	0xbe0617f3	-0.13095073
161	0xbdfe42f0	-0.12415111
162	0xbddc7882	-0.107651725
163	0xbdd42345	-0.1035829
164	0xbdbdef3b	-0.09274145
165	0xbe14896c	-0.14505547
166	0xbda16403	-0.07880404
167	0x3db52c4b	0.08846339
168	0xbe20aae8	-0.15690196
169	0x3e1ebe29	0.15502228
170	0xbdc40241	-0.095707424
171	0xbdaa80a3	-0.08325317
172	0xbdf1e9c5	-0.11812166
173	0xbe213cf7	-0.15745912
174	0xbe0e0fd6	-0.13873228
175	0xbe06cc2b	-0.13163821
176	0xbdfbe90a	-0.12300308
177	0xbddfefc2	-0.10934402
178	0xbe03c6a6	-0.12868747
179	0xbdc592b4	-0.09647122
180	0x3de0424c	0.10950145
181	0xbe22d1fb	-0.15900414
182	0x3e02fdf6	0.12792191
183	0xbdef9596	-0.11698453
184	0xbdcea36a	-0.100897625
185	0xbdadb979	-0.08482642
186	0xbde207d1	-0.11036647
187	0xbe1e8645	-0.15480907
188	0xbdfa004c	-0.12207088
189	0x3e280a66	0.16410217
190	0xbdf5fd13	-0.12011161
191	0x3dfb28fa	0.12263675
192	0xbd9f49e5	-0.07777766
193	0x3df9bc50	0.12194121
194	0xbdf0fba4	-0.11766747
195	0xbdd21474	-0.102578074
196	0x3e0923e6	0.133926
197	0xbe1230a8	-0.14276373
198	0xbe1fbd5e	-0.15599582
199	0x3d9f0b0d	0.0776578
200	0xbe20873e	-0.15676591
201	0xbe1483b8	-0.14503372
202	0xbde0ad0d	-0.10970507
203	0x3bcd2665	0.0062606805
204	0xbe1951fb	-0.1497268
205	0xbdc2ffbd	-0.095214345
206	0x3dd7e387	0.10541444
207	0xbe1119d3	-0.14170007
208	0xbe0e3899	-0.13888778
209	0xbe22bbaf	-0.15891908
210	0xbe08e6b6	-0.13369259
211	0xbde4c93f	-0.11171197
212	0xbe197dcc	-0.14989394
213	0xbdc9c658	-0.09852284
214	0xbd9ae4b7	-0.07563155
215	0x3de4357f	0.11143016
216	0xbdc75f36	-0.09734957
217	0xbdeba60a	-0.11506279
218	0xbe20ac4c	-0.15690726
219	0xbe0a4d70	-0.13506103
220	0xbe007653	-0.12545137
221	0xbe010536	-0.12599644
222	0xbdd5fc00	-0.10448456
223	0xbdc4002f	-0.095703475
224	0xbe1173d1	-0.14204337
225	0x3db53d1a	0.08849545
226	0xbe1db89f	-0.15402459
227	0x3dfffc35	0.124992765
228	0xbe1bd9cc	-0.15219802
229	0xbdd79120	-0.10525727
230	0xbdc34bd4	-0.095359474
231	0xbcd480d5	-0.025940338
232	0xbdb4832a	-0.0881408
233	0xbe109e7f	-0.14122961
234	0xbdbb9fd5	-0.09161345
235	0x3e09fe6e	0.13475963
236	0xbe07bfa9	-0.13256706
237	0xbe1d2c1a	-0.15348855
238	0xbe262362	-0.16224435
239	0x3e227f9b	0.1586899
240	0xbdc9a26c	-0.09845433
241	0x3e117b3f	0.14207171
242	0x3da9f291	0.08298219
243	0x3e14913b	0.14508526
244	0xbdd23ef6	-0.10265915
245	0xbdf3e9f9	-0.11909861
246	0xbe1f17b8	-0.15536392
247	0xbdb90048	-0.09033257
248	0xbdc28c17	-0.09499376
249	0x3e2294f4	0.15877134
250	0xbdd4dfbf	-0.10394239
251	0xbdc43557	-0.09580486
252	0xbe0bf5c3	-0.1366797
253	0xbe2472d2	-0.16059425
254	0xbde2e8b8	-0.11079544
255	0xbe0da4fc	-0.13832468

fc2.bias f4 [128]
0	0xbe0b4f55	-0.13604482
1	0x3ecc189c	0.39862525
2	0x3f66c604	0.901459
3	0xbe218762	-0.157743
4	0x3f918307	1.1368111
5	0xbdf1b6b5	-0.11802427
6	0x3fab1bcf	1.3367862
7	0x3f74b291	0.9558497
8	0x3f601c03	0.8754274
9	0x3ec4b930	0.38422537
10	0x3da5dcd1	0.08098758
11	0x3ecc0acc	0.39851987
12	0xbd153cda	-0.036434986
13	0x3f2af6f6	0.6678308
14	0xbe1387f7	-0.14407335
15	0xbdccf68e	-0.10007964
16	0x3e759a2a	0.2398459
17	0x3f11852c	0.5684383
18	0x3f38974d	0.72105867
19	0x3f0e4fb3	0.5559036
20	0xbe19d94f	-0.15024303
21	0x3f354200	0.70803833
22	0xbe20cded	-0.15703554
23	0xbdecc167	-0.11560326
24	0x3ef819c0	0.48457146
25	0x3f57a88e	0.8424157
26	0x3f449cd3	0.76801795
27	0x3f3dae7e	0.7409438
28	0x3f9753db	1.1822466
29	0xbe016fd1	-0.12640311
30	0x3e7dcf49	0.24786104
31	0x3f4609f2	0.77358925
32	0x3ecb4102	0.39698035
33	0x3f6625d2	0.8990146
34	0xbd81f263	-0.0634506
35	0xbe16f4a3	-0.14741759
36	0xbe1e0d9c	-0.15434879
37	0x3f2afbd1	0.6679049
38	0x3f0b790f	0.54481596
39	0x3edb98ca	0.42890006
40	0xbd9eefa8	-0.077605546
41	0x3f4071a4	0.751734
42	0x3e960f07	0.2930834
43	0xbe0cb664	-0.13741452
44	0x3f03063d	0.51181394
45	0x3f2e5017	0.6809096
46	0xbe0109a3	-0.12601332
47	0xbdc293c9	-0.09500844
48	0x3ef1d227	0.47230646
49	0xbdf25791	-0.11833108
50	0x3f8d8fc2	1.1059496
51	0x3f9396f7	1.1530446
52	0x3f0d80f2	0.5527488
53	0xbdfd150b	-0.12357529
54	0xbdc79c0e	-0.09746562
55	0x3e9effff	0.31054685
56	0x3f0f1fc4	0.55907845
57	0x3fa46e09	1.284608
58	0x3f2b1e22	0.66842854
59	0x3f357fb2	0.7089797
60	0xbdba7451	-0.09104217
61	0x3f1f972d	0.6234005
62	0x3ee8a7f7	0.45440647
63	0xbe46afce	-0.19403002
64	0xbdf33352	-0.11875023
65	0xbdfc56bf	-0.12321233
66	0x3ef41c69	0.47677925
67	0x3ec31116	0.38098973
68	0x3f1242c6	0.5713314
69	0x3f7bc205	0.98342925
70	0x3fbb6800	1.4641113
71	0xbdf1e0ce	-0.11810456
72	0x3f4c5afa	0.7982632
73	0x3f18ebd5	0.5973485
74	0x3ebcff24	0.36913407
75	0x3f93777c	1.1520839
76	0x3f2d60e3	0.6772596
77	0x3f2d1230	0.67605877
78	0xbda6ba71	-0.081410296
79	0x3f139bec	0.5765979
80	0xbd8d8d99	-0.06911773
81	0x3f04bce4	0.51850724
82	0xbdfb0ea4	-0.12258652
83	0x3e82620b	0.25465426
84	0xbda5c2a1	-0.08093763
85	0xbd6f41ac	-0.05841224
86	0x3ec76e93	0.3895155
87	0x3f34e2c9	0.70658547
88	0x3f0749fc	0.52847266
89	0x3f5fd399	0.8743225
90	0x3f572772	0.84044564
91	0x3f318a70	0.69351864
92	0x3e689f03	0.22716908
93	0xbdf052da	-0.11734553
94	0x3f884f1b	1.0649141
95	0x3eac0de7	0.33604357
96	0x3f15b520	0.584795
97	0x3f300e5f	0.6877193
98	0x3f60d7c4	0.8782923
99	0x3e8627f2	0.2620235
100	0x3f6c85ea	0.92391837
101	0x3eceb4d3	0.40372333
102	0xbe207a9f	-0.15671776
103	0x3f16ad61	0.58858305
104	0x3f0a6d2f	0.5407285
105	0x3ea224f3	0.31668815
106	0xbe02ca00	-0.1277237
107	0xbd3f09ba	-0.046640135
108	0x3e86aef4	0.26305354
109	0xbdce381a	-0.10069294
110	0xbdf0f398	-0.11765212
111	0xbe06778d	-0.13131543
112	0x3f0db682	0.5535661
113	0x3f27d0eb	0.6555316
114	0x3fe49b74	1.785994
115	0x3e306f2a	0.17229906
116	0x3f57578b	0.84117955
117	0xbe3da49f	-0.18519829
118	0xbe019b38	-0.12656868
119	0x3f234d8c	0.637902
120	0x3f1c76a5	0.6111854
121	0x3f0c75fa	0.5486752
122	0xbe068c73	-0.13139515
123	0x3ecc7369	0.399318
124	0xbe10558a	-0.1409513
125	0xbde829a2	-0.11336066
126	0xbe043926	-0.12912425
127	0x3faf26e2	1.3683741

fc3.weight f4 [17, 128]
0	0x3d6297a2	0.05532039
1	0xbd120a6f	-0.03565448
2	0x3eaa037b	0.3320578
3	0x3dcddce7	0.100518994
4	0x3fa3f9e5	1.2810637
5	0x3de353d0	0.1109997
6	0xbd928277	-0.071537904
7	0x3f1ec91c	0.6202562
8	0x3ed98407	0.4248354
9	0xbec209d6	-0.3789813
10	0x3e7af351	0.2450688
11	0xbf3ae497	-0.7300505
12	0x3c2e2f1b	0.010631348
13	0x3f4fb060	0.811285
14	0x3def1a4a	0.11674936
15	0x3dd9ed35	0.10640947
16	0xbc2268b5	-0.009912659
17	0x3d53f950	0.051751435
18	0x3eb43031	0.35193017
19	0xbf38c739	-0.7217899
20	0x3d160b56	0.036631905
21	0x3ec39f91	0.38207677
22	0x3dc674a4	0.09690216
23	0x3de404d3	0.11133733
24	0xbeb15993	-0.34638652
25	0x3c9cc58d	0.019137168
26	0xbe77fa91	-0.24216677
27	0x3d8cb172	0.068697825
28	0x3e9a96ab	0.30193076
29	0xbdc0a135	-0.09405748
30	0xbd61be5d	-0.055113185
31	0x3f44b421	0.76837355
32	0xbe03f995	-0.12888177
33	0xbf260604	-0.6485293
34	0xbc2ce474	-0.010552514
35	0xbe20aa0f	-0.15689872
36	0x3d21f69d	0.03954183
37	0x3de21566	0.11039238
38	0xbe7bbe03	-0.24584202
39	0xbe98fbd0	-0.29879618
40	0x3e48ac5d	0.19597001
41	0x3ec1a7a6	0.37823218
42	0xbe80e366	-0.2517349
43	0x3d2c7a85	0.04210903
44	0x3ef65bcc	0.4811691
45	0xbf396b18	-0.7242904
46	0x3e4a8c01	0.1977997
47	0x3e0fa9eb	0.14029662
48	0x3ef4d181	0.4781609
49	0x3d36cd06	0.04462912
50	0x3f29a60b	0.66268986
51	0x3f1c79ce	0.6112336
52	0x3e96d922	0.29462534
53	0x3dc9f8b3	0.09861889
54	0xbd3fd372	-0.04683251
55	0xbe9198fe	-0.28437036
56	0x3f1cd45b	0.6126153
57	0xbe51ce9f	-0.20488976
58	0x3f04f694	0.5193875
59	0xbf7f6c07	-0.9977421
60	0x3ecd1b4d	0.4005989
61	0x3f24b3d2	0.64336884
62	0x3e97ffa5	0.2968723
63	0xbe1c7d84	-0.15282255
64	0x3dd98a2c	0.10622057
65	0xbe03d268	-0.12873232
66	0x3b6ba7fb	0.0035958278
67	0xbee370f9	-0.4442213
68	0x3eb1709d	0.3465623
69	0x3d58233c	0.052767977
70	0xbe89116e	-0.2677111
71	0x3e063455	0.131059
72	0xbe0bd11e	-0.1365399
73	0x3e84d061	0.2594023
74	0x3e98fff8	0.2988279
75	0x3e616832	0.22012404
76	0x3eb6baa2	0.35689265
77	0x3e9d927b	0.30775818
78	0xbe50db7e	-0.2039623
79	0xbeedcc95	-0.46445146
80	0xbe3a9cfc	-0.18223947
81	0xbe8a2409	-0.26980618
82	0xbd96f5bf	-0.07371091
83	0xbf0d3b92	-0.5516902
84	0x3db3bdac	0.087764114
85	0xbb08777e	-0.0020823176
86	0x3e69132e	0.22761223
87	0xbf067ea4	-0.5253699
88	0x3f259c66	0.6469177
89	0xbf945f3f	-1.1591567
90	0x3f2b71b9	0.669704
91	0x3e8fbe98	0.280751
92	0xbb33cdfa	-0.0027436004
93	0x3d9b3d35	0.07580034
94	0xbe3014e9	-0.17195477
95	0xbe61fb1b	-0.22068445
96	0xbe90a7eb	-0.2825311
97	0x3f3da98f	0.7408685
98	0xbf98cb24	-1.1936994
99	0x3ee28679	0.4424322
100	0x3e1b90a4	0.15191895
101	0xbe0643f2	-0.13111857
102	0xbe0fca1b	-0.14041941
103	0x3da4d3fb	0.080482446
104	0x3de87b0f	0.113515966
105	0xbec62728	-0.3870175
106	0x3df65e46	0.120297
107	0xbf2a4c3b	-0.6652257
108	0x3e049080	0.12945747
109	0x3d3bd176	0.045854054
110	0xbd4e55cb	-0.050374787
111	0xbe36c182	-0.17847255
112	0x3e017693	0.12642889
113	0x3ebad9ab	0.36494192
114	0xbe834146	-0.25635737
115	0xbec48066	-0.3837921
116	0xbea559f1	-0.32295182
117	0xbd9782f4	-0.07398024
118	0x3d7fa77f	0.062415596
119	0x3e814548	0.2524817
120	0x3d69cc70	0.057079732
121	0x3f27d86e	0.6556462
122	0xbe950f82	-0.29113394
123	0x3e4a7643	0.19771676
124	0x3d8ebc84	0.0696955
125	0x3de824ec	0.11335167
126	0x3e0307ee	0.12795994
127	0xbf3d3e4d	-0.7392319
128	0x3da24817	0.07923906
129	0x3e8c5a09	0.2741244
130	0x3d8bf5e0	0.06834006
131	0x3d7fc4d4	0.06244357
132	0xbf13aba3	-0.5768377
133	0x3d5959d4	0.053064182
134	0xbeae0f2b	-0.33995947
135	0x3d6d711b	0.057969194
136	0xbde40c66	-0.11135177
137	0x3f4ce3c2	0.8003503
138	0x3e125487	0.14290057
139	0x3edac66f	0.42729518
140	0x3dca3462	0.098732725
141	0xbf570bb7	-0.8400225
142	0x3e2eac34	0.17057878
143	0x3e5130bd	0.20428748
144	0x3dc871ea	0.097873524
145	0xbee1a795	-0.44073167
146	0x3dd4c53c	0.10389182
147	0x3f8ac202	1.0840456
148	0x3e230563	0.15920024
149	0xbe9c2c37	-0.30502483
150	0x3dc6ad41	0.09701014
151	0x3d63c37e	0.055606358
152	0x3e85fd98	0.2617004
153	0x3d23b70b	0.039969485
154	0x3f0d7373	0.55254287
155	0xbec5ca4f	-0.38630912
156	0xbe218e0c	-0.15776843
157	0x3e3c6bf2	0.18400553
158	0xbd8c791c	-0.06859037
159	0xbda9d103	-0.08291819
160	0x3f0bd29f	0.5461826
161	0xbe4cc97f	-0.1999874
162	0xbc918ed2	-0.017768297
163	0x3db79a1c	0.08964941
164	0x3e4744d2	0.19459847
165	0xbe1dd12f	-0.15411828
166	0x3dc435ff	0.095806114
167	0x3f0427a1	0.5162297
168	0x3e199a26	0.15000209
169	0x3f134b02	0.5753633
170	0x3ec2941e	0.3800363
171	0x3e1ff676	0.15621361
172	0xbe5a047f	-0.21290778
173	0xbf27167e	-0.65268695
174	0x3df4620f	0.11932766
175	0x3e45fe53	0.19335298
176	0x3f1a49a7	0.60268635
177	0x3db3f370	0.087866664
178	0x3e876bc8	0.26449418
179	0xbed2c3a9	-0.41164902
180	0xbe9e8068	-0.3095734
181	0x3e3cad04	0.18425375
182	0x3ddba783	0.1072531
183	0x3e112827	0.14175473
184	0x3ec9e145	0.3942968
185	0xbd624dfe	-0.05525016
186	0x3cd24bba	0.025670875
187	0x3e4b4773	0.19851474
188	0xbe8699cd	-0.26289216
189	0xbd90aa4d	-0.07063732
190	0xbd9887a0	-0.074477434
191	0x3e4f9407	0.20271312
192	0x3e1b08fe	0.15140149
193	0x3e29df8f	0.16589187
194	0x3d4d8dcb	0.050184052
195	0x3e9d7907	0.307564
196	0x3e198ec4	0.14995867
197	0x3d82c1ed	0.06384645
198	0x3e25c2cb	0.16187589
199	0x3e309aee	0.17246601
200	0x3e8e0c2b	0.27743658
201	0xbe461d9e	-0.19347236
202	0x3e8e2a60	0.27766705
203	0x3f2b1a4e	0.6683701
204	0xbf3ed9ca	-0.7455107
205	0xbf014506	-0.50495946
206	0x3d63e4e8	0.055638224
207	0x3e513734	0.20431215
208	0xbe23924d	-0.15973778
209	0xbd24a8d7	-0.04020008
210	0x3d6700c4	0.056397215
211	0x3f2742f4	0.6533654
212	0x3e064bfc	0.13114923
213	0x3dc74572	0.097300425
214	0x3df83a46	0.1212049
215	0x3d537da5	0.051633496
216	0xbe9b5400	-0.30337524
217	0x3f30b558	0.6902671
218	0x3d4e8b9a	0.050426103
219	0x3eeb1cfa	0.45920545
220	0xbc306ae7	-0.010767675
221	0x3ddd209a	0.10797234
222	0xbf6e7fe4	-0.93163896
223	0x3e31a79e	0.17349097
224	0xbecaffbb	-0.39648232
225	0x3e2c3a79	0.1681918
226	0xbed50fd5	-0.4161364
227	0x3df0f839	0.11766095
228	0xbe4bc744	-0.19900233
229	0xbe1e154f	-0.15437816
230	0x3d87aa4e	0.0662428
231	0xbea790cc	-0.3272766
232	0x3f282a6a	0.6568972
233	0xbe81bc3a	-0.25338918
234	0x3e406f32	0.18792418
235	0x3f3a043e	0.72662723
236	0xbf1538c6	-0.58289754
237	0x3de4d5dc	0.11173603
238	0x3d49a67f	0.04923105
239	0x3e239776	0.15975747
240	0x3e427a53	0.18991975
241	0xbd6a7ef4	-0.05724998
242	0x3ed626f2	0.41826588
243	0xbd8e5717	-0.06950205
244	0xbdb43bd2	-0.08800472
245	0xbc4af417	-0.012387297
246	0x3d951d7c	0.07281014
247	0xbc153b95	-0.009108444
248	0x3ec138ac	0.3773855
249	0xbe72f8aa	-0.2372767
250	0x3e034c53	0.12822084
251	0xbd41a848	-0.047279626
252	0x3e090595	0.13381036
253	0x3d87611d	0.0661032
254	0x3df26dee	0.11837374
255	0xbf0ec3a6	-0.55767286

fc3.bias f4 [17]
0	0x3f80020f	1.0000628
1	0x3dec0500	0.11524391
2	0x3f2c3e21	0.672823
3	0x3f6035e7	0.8758225
4	0x3f4dbd55	0.8036702
5	0x3f30c7c2	0.69054806
6	0x3f22c14c	0.635762
7	0x3ed8dcbc	0.42355907
8	0x3f2ea732	0.6822387
9	0x3eecadc0	0.4622631
10	0x3edda6cb	0.43291315
11	0x3e688e6e	0.22710583
12	0x3ed16820	0.40899754
13	0x3db79445	0.08963827
14	0x3f0e1612	0.55502427
15	0x3ebaf27c	0.36513126
16	0x3f1cf441	0.613102
